…
    "text": "A. 1단계\n\n인공지능에 대한 이해\n\n- 인공지능 불러오기\n\ntorch.manual_seed(43052)\n인공지능 = model = transformers.AutoModelForSequenceClassification.from_pretrained(\n    \"distilbert/distilbert-base-uncased\", num_labels=2\n)\n\nSome weights of DistilBertForSequenceClassification were not initialized from the model checkpoint at distilbert/distilbert-base-uncased and are newly initialized: ['classifier.bias', 'classifier.weight', 'pre_classifier.bias', 'pre_classifier.weight']\nYou should probably TRAIN this model on a down-stream task to be able to use it for predictions and inference.\n\n\n- 인공지능의 정체? 엄청나게 많은 숫자들이 포함된 어떠한 물체 (엄청나게 많은 파라메터들이 포함된 네트워크)\n\n인공지능\n\nDistilBertForSequenceClassification(\n  (distilbert): DistilBertModel(\n    (embeddings): Embeddings(\n      (word_embeddings): Embedding(30522, 768, padding_idx=0)\n      (position_embeddings): Embedding(512, 768)\n      (LayerNorm): LayerNorm((768,), eps=1e-12, elementwise_affine=True)\n      (dropout): Dropout(p=0.1, inplace=False)\n    )\n    (transformer): Transformer(\n      (layer): ModuleList(\n        (0-5): 6 x TransformerBlock(\n          (attention): MultiHeadSelfAttention(\n            (dropout): Dropout(p=0.1, inplace=False)\n            (q_lin): Linear(in_features=768, out_features=768, bias=True)\n            (k_lin): Linear(in_features=768, out_features=768, bias=True)\n            (v_lin): Linear(in_features=768, out_features=768, bias=True)\n            (out_lin): Linear(in_features=768, out_features=768, bias=True)\n          )\n          (sa_layer_norm): LayerNorm((768,), eps=1e-12, elementwise_affine=True)\n          (ffn): FFN(\n            (dropout): Dropout(p=0.1, inplace=False)\n            (lin1): Linear(in_features=768, out_features=3072, bias=True)\n            (lin2): Linear(in_features=3072, out_features=768, bias=True)\n            (activation): GELUActivation()\n          )\n          (output_layer_norm): LayerNorm((768,), eps=1e-12, elementwise_affine=True)\n        )\n      )\n    )\n  )\n  (pre_classifier): Linear(in_features=768, out_features=768, bias=True)\n  (classifier): Linear(in_features=768, out_features=2, bias=True)\n  (dropout): Dropout(p=0.2, inplace=False)\n)\n\n\n\n인공지능.classifier.weight\n\nParameter containing:\ntensor([[-0.0234,  0.0279,  0.0242,  ...,  0.0091, -0.0063, -0.0133],\n        [ 0.0087,  0.0007, -0.0099,  ...,  0.0183, -0.0007,  0.0295]],\n       requires_grad=True)\n\n\n\n인공지능.pre_classifier.weight\n\nParameter containing:\ntensor([[-0.0122,  0.00
…
